apps/backend/saved/CDAE-Nov-14-2024_11-20-23.pth (torch, 124938 bytes, 1 tensors)

h_user.weight f4 [48, 64]
0	0x3e314861	0.17312767
1	0xbe32b412	-0.17451504
2	0xbd507c99	-0.050900076
3	0x3a894982	0.0010474178
4	0x3dacaf98	0.08431929
5	0x3daaa3d7	0.08332031
6	0x3e5eddb5	0.21764262
7	0x3cbe8698	0.023257539
8	0xbe1252be	-0.14289376
9	0xbe004359	-0.12525691
10	0x3aa3fc2b	0.0012511065
11	0x3e26c5dc	0.16286415
12	0xbe2debde	-0.16984507
13	0x3de01d19	0.1094305
14	0x3e348c31	0.17631604
15	0x3e673d0a	0.22581878
16	0xbe1f175d	-0.15536256
17	0x3db2f083	0.0873728
18	0xbd2bd0eb	-0.041947287
19	0xbe07a3df	-0.13246106
20	0xbb546e83	-0.0032414503
21	0xbe18e78c	-0.14932078
22	0xb9f68ed6	-0.00047027197
23	0x3e3bb7dd	0.18331857
24	0xbcc3fa1d	-0.023922974
25	0x3e10f842	0.14157203
26	0x3c93b56b	0.018030843
27	0xbe5184e1	-0.20460846
28	0x3e96756c	0.2938646
29	0x3a69f798	0.0008925139
30	0x3c668c69	0.014071562
31	0x3c654c59	0.0139952535
32	0x3e7d2c96	0.2472404
33	0x3ce78c9c	0.02826529
34	0xbb9084d2	-0.0044103647
35	0x3e9200fb	0.28516373
36	0x3b263cb9	0.0025365783
37	0x3d1be19d	0.03805696
38	0x3e2b2c84	0.167162
39	0xbdef682a	-0.116897896
40	0x3e421b4f	0.1895573
41	0xbd04d32c	-0.03242795
42	0x3e2cb2e0	0.1686511
43	0xbdcf4097	-0.101197414
44	0x3cb4a39a	0.022050668
45	0x3dc5de8c	0.09661588
46	0xbdb5210b	-0.08844193
47	0xbcec7cb8	-0.028868064
48	0xbdb1ce97	-0.08681982
49	0x3e024189	0.12720312
50	0x3df5005f	0.119629614
51	0xbd4e61b0	-0.05038613
52	0xbcf4862a	-0.02984913
53	0x3df2190c	0.118211836
54	0x3e6aa549	0.22914614
55	0xbd54c3cb	-0.051944535
56	0x3d739cb3	0.059475612
57	0x3cc0e6a8	0.023547485
58	0x3e19f580	0.15035057
59	0xbdc230d0	-0.094819665
60	0x3d890a0e	0.06691371
61	0xbd9ca551	-0.07648719
62	0x3d0df5c5	0.034658212
63	0x3def6370	0.11688888
64	0xbcaa356d	-0.020777429
65	0x3dc4f35f	0.09616732
66	0xbe2ca50b	-0.16859834
67	0x3e0125ab	0.12612025
68	0xbd61a774	-0.055091336
69	0xbe89d8d2	-0.26923233
70	0xbd18d29b	-0.037310224
71	0x3df692a6	0.1203969
72	0xbcaaaa0c	-0.020833038
73	0xbd0be8df	-0.03415763
74	0x3e8261cd	0.2546524
75	0x3e214453	0.1574872
76	0x3e376442	0.17909339
77	0xbe611fae	-0.21984741
78	0x3e8d30da	0.27576333
79	0x3e5a946f	0.21345685
80	0x3c189570	0.009312972
81	0xbe38caba	-0.18046084
82	0x3e1aa5b3	0.15102272
83	0x3d8f0764	0.069838315
84	0xbddb5da4	-0.1071122
85	0xbd2dccac	-0.04243152
86	0xbacede3e	-0.0015782786
87	0xbde5b1c3	-0.11215546
88	0xbcf7e2f8	-0.030259594
89	0x3dc5bf68	0.096556485
90	0xbe61a842	-0.22036842
91	0x3e86f2d1	0.2635713
92	0xbca2dae0	-0.019879758
93	0xbe51accd	-0.20476075
94	0xbcf6019f	-0.03003007
95	0xbe5a95a3	-0.21346144
96	0xbcfb85a1	-0.030703368
97	0xbe03383e	-0.12814423
98	0x3e0ae8c5	0.13565357
99	0xbaeb33f0	-0.0017944556
100	0x3e0867b0	0.13320804
101	0xbc5381a6	-0.012909329
102	0x3e4f75e9	0.20259823
103	0xbdcf6c43	-0.10128071
104	0x3d301334	0.042987064
105	0x3e286772	0.16445711
106	0x3e073f13	0.13207655
107	0xbd4b80b9	-0.049683306
108	0x3e0b1c8b	0.13585107
109	0xbdf2953c	-0.118448704
110	0xbe1126dc	-0.1417498
111	0x3ded43bc	0.11585185
112	0x3d68d363	0.05684222
113	0xbe5aed58	-0.21379602
114	0x3e347aad	0.17624922
115	0xbdfc8b1a	-0.12331219
116	0xbe12dc2c	-0.14341801
117	0xbdb7de64	-0.089779645
118	0x3d3c8d56	0.046033226
119	0xbe35593f	-0.17709826
120	0x3e69756a	0.22798696
121	0x3ca4c06f	0.02011129
122	0xbd85e0cf	-0.065370195
123	0x3e7e4f6b	0.24834983
124	0xbc1a349a	-0.009411955
125	0xbe177d8f	-0.1479399
126	0x3e1a880d	0.15090962
127	0x3d8a1551	0.06742347
128	0x3d6c828a	0.05774168
129	0x3e0d09a7	0.13773213
130	0x3e1781f5	0.14795668
131	0xbdeb268c	-0.114819616
132	0xbc1bd0e8	-0.009510256
133	0xbdc62ee9	-0.09676916
134	0x3d7f4704	0.062323585
135	0xbc889aca	-0.016675372
136	0x3dca671a	0.09882946
137	0x3e2bf8e5	0.16794164
138	0xbe9ff64d	-0.312426
139	0xbd938cc6	-0.07204585
140	0x3da48b0d	0.08034334
141	0x3e23ae4d	0.15984459
142	0xbe09b6b4	-0.13448602
143	0xbb16973a	-0.0022978322
144	0x3e4a091d	0.19730039
145	0x3c3460f0	0.01100944
146	0x3e22896b	0.15872733
147	0xbdc29290	-0.09500611
148	0x3c52d51e	0.012868194
149	0xbd69d37d	-0.057086457
150	0x3c800751	0.015628489
151	0x3d0092ab	0.031389873
152	0x3d0ea1c6	0.034822248
153	0x3d802935	0.062578596
154	0x3e98cc1c	0.29843223
155	0x3e0b309e	0.13592765
156	0xbe481639	-0.19539727
157	0xbe2b5005	-0.16729744
158	0x3e566cf2	0.20939997
159	0xbdd2458b	-0.102671705
160	0x3da1ad09	0.07894332
161	0x3d97a7e6	0.07405071
162	0xbd701683	-0.05861522
163	0x3d96d2ae	0.07364403
164	0x3dfecf6d	0.12441907
165	0xbba1f5ca	-0.0049426304
166	0x3d42cd1f	0.0475589
167	0x3c924e01	0.01785946
168	0x3ea6b5da	0.32560617
169	0x3e4493a0	0.1919694
170	0x3d99b446	0.075050876
171	0x3deff0a5	0.11715821
172	0xbcde2967	-0.027119352
173	0xbdc7990b	-0.097459875
174	0xbcb3fa6a	-0.021969993
175	0xbd3c4eb7	-0.045973506
176	0xbdfd1477	-0.12357419
177	0xbdcf1df2	-0.101131335
178	0x3e783588	0.2423917
179	0xbd1ac06a	-0.037781157
180	0x3e0f7eed	0.14013262
181	0x3e200957	0.15628563
182	0xbe3dcae2	-0.18534425
183	0x3de5dae2	0.11223389
184	0x3dc3a7e3	0.09553506
185	0xbdcc1bd6	-0.09966247
186	0x3da47e6e	0.08031927
187	0xbe22f9d4	-0.15915614
188	0x3dca5875	0.09880153
189	0x3df0bc81	0.11754704
190	0x3e131d98	0.14366758
191	0xbe329a82	-0.17441753
192	0x3d328636	0.043585025
193	0x3e40b562	0.18819192
194	0x3d8764df	0.066110365
195	0x3cb7d4dc	0.022440366
196	0x3bca4688	0.0061729588
197	0x3d03e5f3	0.03220172
198	0xbdc47162	-0.095919386
199	0x3e2219b9	0.15830125
200	0x3e6c7bed	0.23094149
201	0xbd210c7a	-0.03931854
202	0xbd8d8452	-0.06910004
203	0xbe2909a8	-0.1650759
204	0x3c81d766	0.01584978
205	0xbdbdccee	-0.09267603
206	0xbdae6673	-0.085156344
207	0x3d96609a	0.07342644
208	0xbe212ca8	-0.15739691
209	0x3d2aaebd	0.04167055
210	0x3ddaff4b	0.106932245
211	0xbd1ad24e	-0.03779822
212	0xbe3899ec	-0.18027467
213	0xbd914bc5	-0.0709453
214	0xbe693ee6	-0.227779
215	0xbe2f2ed7	-0.17107712
216	0x3db710ac	0.08938727
217	0x3e4c199e	0.19931647
218	0xbd6c595f	-0.05770242
219	0x3dbdea98	0.09273261
220	0xbd9eb414	-0.07749191
221	0x3e090ed1	0.13384558
222	0x3d7a0348	0.061038285
223	0xbc87c0cc	-0.016571425
224	0x3e20b69e	0.15694663
225	0xbcb9579a	-0.02262478
226	0x3cee6841	0.029102447
227	0x3bfe838c	0.0077671465
228	0xbe337de9	-0.175285
229	0x3d918bdc	0.07106754
230	0x3e739db1	0.23790623
231	0xbccdc3f2	-0.025117848
232	0xbe68fa4a	-0.22751728
233	0xbd0f65a2	-0.035009034
234	0x3de3b345	0.11118177
235	0x3e168e91	0.14702822
236	0xbca00138	-0.019531831
237	0x3d81c5dc	0.06336567
238	0xbd93e0e2	-0.07220627
239	0xbdc8f964	-0.098131925
240	0x3e786e8a	0.24260917
241	0x3d904e70	0.07046211
242	0xbd53c242	-0.05169893
243	0x3e48a64f	0.19594692
244	0xbe7f8f5a	-0.24957028
245	0xbe4ccb1b	-0.19999354
246	0xb9849497	-0.0002528771
247	0x3e0fe827	0.14053403
248	0x3de300c7	0.11084133
249	0x3dd20923	0.10255649
250	0x3daa10e9	0.083040066
251	0xbd33df72	-0.043914266
252	0x3e186f50	0.14886212
253	0xbd3fff71	-0.046874467
254	0x3d3a6dfb	0.04551504
255	0x3d4aa34d	0.049472142
